wafer_defect_model.onnx (onnx, 251279 bytes, 13 tensors)

classifier.1.bias f4 [5]
000000 3b fb 91 3c e8 8f 4d bc 58 1e 89 3c 23 c1 e1 3b
       0.017819991 -0.012546517 0.016738102 0.006889479
000010 75 ea 24 bb
       -0.0025164161

features.0.0.weight_bias f4 [32]
000000 56 5a 16 bd cf d4 0a 3f 3c c2 a9 3e 95 08 a1 3e
       -0.036707245 0.5423097 0.33156002 0.3145186
000010 79 da 7f 3f 32 df 7d 3f cc 55 00 3f 5b d6 02 3f
       0.9994274 0.99168694 0.50130916 0.5110833
000020 8f 74 22 3f 40 0f 81 bb f8 3c 78 bd 24 92 6b 3f
       0.63459104 -0.0039385855 -0.06060502 0.9201987
000030 36 74 e4 3e 0b 44 c9 be dd 4d 08 bb 7a 91 a4 3b
       0.44619912 -0.39309725 -0.0020798363 0.005022225
000040 ab f9 1b bd 7c 8a 8c bc 67 22 a6 3e c5 5d 98 bf
       -0.0380799 -0.017155878 0.32448122 -1.1903616
000050 f3 91 59 be 75 89 05 3f 28 a3 30 bd ec 3c 89 bc
       -0.21247081 0.5216287 -0.043124348 -0.016752683
000060 bf de 94 be 93 e1 02 3f ce 3d 85 be a4 8b 24 3f
       -0.29076192 0.5112545 -0.26023716 0.64275575
000070 48 45 76 3d d8 89 23 bd ab 7f 78 3f 7a 51 81 3e
       0.060124665 -0.03992638 0.97069806 0.25257474

features.1.conv.0.0.weight_bias f4 [32]
000000 ec 59 04 bc b7 10 99 3f 14 5d a5 be 80 4a be 3e
       -0.00807808 1.1958226 -0.32297575 0.37166214
000010 46 d1 e1 3e e9 3d 4e 3f 42 81 9c 3f b7 2f ca 3e
       0.44104975 0.8056322 1.2226946 0.3948953
000020 23 f1 9d 40 e4 50 99 bb aa 14 b5 3e 37 e4 c9 3e
       4.9356856 -0.0046788324 0.35367328 0.39431927
000030 32 be 2a 3f a1 28 d6 be 2e eb b9 bb 34 9c b5 bb
       0.66696465 -0.41827872 -0.0056737876 -0.0055423025
000040 f5 39 84 3c 75 de 5b 3c 26 53 8e 3e ad 12 dc 3d
       0.016140917 0.013419737 0.27797812 0.107457496
000050 5b ab 87 be d0 d5 c7 3f ea 2a 6a 3f 94 92 cf 3a
       -0.2649792 1.5612125 0.9147173 0.001583653
000060 de af 43 3f e4 db 30 bf 00 ee a1 be 14 58 76 3f
       0.7644023 -0.69085526 -0.31626892 0.96228147
000070 85 ec 2a 3f 8b ed 9f 3e dd 96 81 3f ed 63 0f be
       0.6676715 0.31235918 1.0124165 -0.14002962

features.1.conv.1.weight_bias f4 [16]
000000 68 da 0c c0 12 33 b1 3e 27 f6 ad bf e5 ae a0 3f
       -2.2008305 0.34609276 -1.3590745 1.2553374
000010 08 ca e9 bd 93 e3 dd be 27 c5 22 bf bb be 0a c0
       -0.114154875 -0.43337688 -0.6358208 -2.1678913
000020 f2 31 57 bf 7c d3 d6 bf d9 a1 af 3f 70 63 08 bf
       -0.84060585 -1.678329 1.3721267 -0.5327673
000030 e0 7d 35 bf 21 d7 0e be 31 3d 0e 40 6a f3 cb 3f
       -0.70895195 -0.13949253 2.2224848 1.5933659

features.2.conv.2.weight_bias f4 [24]
000000 02 37 a8 bf d1 e1 02 3f de bf 23 bf 4d 56 32 be
       -1.3141787 0.5112582 -0.6396464 -0.17415734
000010 0a 3c e9 bd ed 94 53 bf 7e 7b 09 bf 6f 88 34 3e
       -0.11388405 -0.8264912 -0.5370406 0.1763017
000020 8a 30 41 be 60 f6 b1 3c 59 8f ae 3d d1 98 ce 3e
       -0.18866172 0.021723926 0.08523435 0.40350965
000030 a0 55 ca 3d f0 88 03 40 56 5c d2 3f 57 88 36 3f
       0.09879613 2.055233 1.6434429 0.7130179
000040 96 e2 5b 3e cb c1 61 be e2 ec 05 bf ea f5 fe 3d
       0.21473154 -0.22046582 -0.5231458 0.12449248
000050 6c 45 d2 3e 38 be 8a 3e 5a 7d 20 3e 50 ae 01 3e
       0.4106859 0.2709825 0.15672818 0.12664151

features.3.conv.2.weight_bias f4 [24]
000000 ca 72 d1 bf 76 0b 6f bf 40 3b de 3d 7a b3 6e be
       -1.6363156 -0.93376863 0.10851145 -0.23310652
000010 c6 ae 9f bf 70 d5 9a 3f 18 75 6d 3f 9f ae 1e 3e
       -1.2475212 1.2096386 0.92756796 0.154963
000020 26 c1 52 3e 98 15 d9 bd c7 87 0d c0 9d d0 2c bf
       0.20581493 -0.10599822 -2.2114122 -0.6750582
000030 88 4c 33 3f 6d 45 8c bf 61 6c 9c 3d 19 11 7a be
       0.7003865 -1.0958687 0.07637859 -0.24420585
000040 48 e1 af 3e b2 8c c8 be 12 6d fd be b0 11 92 3e
       0.34351563 -0.39169842 -0.49497277 0.2852912
000050 64 fb 5a 3f 47 78 26 3f 6b af 0d c0 60 6b b9 3f
       0.8553984 0.6502728 -2.2138317 1.4485893

features.4.conv.2.weight_bias f4 [32]
000000 43 60 50 3f c8 b1 0b 3f 81 48 35 bf 93 76 23 3f
       0.81396884 0.5456815 -0.7081376 0.63852805
000010 69 91 0b 3e 49 76 9e bf 76 21 70 be 39 46 7a bd
       0.13629688 -1.2379848 -0.23450264 -0.061102126
000020 4c 29 fe 3d de 94 b4 bf 56 58 3d 3f 31 9c bb 3f
       0.124102205 -1.4107931 0.73962915 1.4657041
000030 81 76 1a 3f 6b b5 30 3f 7e 0c a0 3d 4a d3 cf be
       0.6033707 0.6902682 0.07814883 -0.40590888
000040 4e 52 4f 3f ca 12 ff bd aa 07 18 3f 70 39 aa be
       0.8098496 -0.124547556 0.59386694 -0.33246946
000050 9e 57 44 be f4 c3 f1 3e 7d 77 1e bf a8 2f 15 3f
       -0.19174048 0.47219813 -0.61901075 0.5827584
000060 71 35 48 bf 4d b1 7c 3f f4 01 17 be ab e6 aa bf
       -0.78206545 0.9870804 -0.14746839 -1.3351644
000070 3d 63 98 3e da d2 96 bf 75 a3 27 bf d7 53 3e be
       0.29763213 -1.1783097 -0.6548379 -0.1858667

features.5.conv.2.weight_bias f4 [32]
000000 3e 70 3c 3a 51 f3 63 3e fa c5 be be 67 e0 13 3f
       0.0007188356 0.22260787 -0.3726042 0.57764286
000010 58 97 5b be 57 3d 53 bd 18 94 2f 3e 87 cb 64 be
       -0.21444452 -0.05157217 0.17146337 -0.22343265
000020 9e 85 fb be c2 ad 26 3e 1e dd e5 3d 2b 5b 92 be
       -0.4912538 0.16277221 0.112238154 -0.2858518
000030 81 df cd be c3 cc 12 bf 09 3d 90 3d ec 34 89 be
       -0.40209582 -0.5734369 0.070428915 -0.2679819
000040 b1 42 ea 3e c7 d1 00 be 91 58 4e 3e 95 d7 d6 3e
       0.45754007 -0.12580024 0.20150973 0.4196135
000050 e7 ee 43 3f 16 a0 ad be 20 37 8e 3e 1f ef 01 bf
       0.7653641 -0.33911198 0.27776432 -0.50755495
000060 b2 63 31 3e a8 8f 30 be cd e6 b9 be e2 df c7 3e
       0.17323187 -0.172423 -0.363089 0.39037997
000070 63 0e e2 3e 34 ab 28 be e2 6e 8f be d7 0c 24 3d
       0.441516 -0.16471559 -0.28014284 0.040051308

features.6.conv.2.weight_bias f4 [32]
000000 f7 5d d4 be 12 e4 71 3d 6d 8c 8b be 31 cc 4d 3e
       -0.4147794 0.059055395 -0.27255574 0.20097424
000010 c5 61 62 3e 00 c7 91 3e 45 0b b8 be 53 b6 5d 3e
       0.22107609 0.28472137 -0.35946098 0.21651582
000020 e3 4d 8e bc 9f c3 30 3f da 7c 1b 3e 50 6a 1d 3e
       -0.017371124 0.69048494 0.15184346 0.15372586
000030 48 0b 3a 3e 05 85 42 3e e1 18 94 3e 87 78 f7 be
       0.18168366 0.18996055 0.2892523 -0.48334143
000040 03 18 16 bf 43 be f9 be cf 26 d8 3d eb b9 76 3f
       -0.5863039 -0.4877797 0.10554277 0.9637744
000050 22 2c bf 3e 6b 19 5c 3e bb 81 f2 bd 22 6a 45 3e
       0.37338358 0.21494071 -0.118411504 0.19278768
000060 a1 34 91 bd 4d 0c 08 bf e8 39 e9 be bf d6 83 3e
       -0.07090116 -0.5314377 -0.4555199 0.25749776
000070 d6 36 9b be 7a 58 f0 be 60 85 c7 3e b7 53 47 be
       -0.30315274 -0.46942502 0.38968945 -0.19465528

features.7.conv.2.weight_bias f4 [64]
000000 32 cf bb be 37 e6 04 be 09 72 5f bf 5c 55 31 bd
       -0.36681515 -0.12978445 -0.8728338 -0.043294296
000010 d2 81 07 bf 10 d3 db bd 24 2a 98 3d 43 74 5e bf
       -0.52932465 -0.10733616 0.07429913 -0.8689615
000020 f0 aa 01 bc 71 f5 e2 3f d0 f4 b7 bf 66 3b a8 3f
       -0.00791429 1.7731153 -1.4371586 1.3143127
000030 91 fc d9 3d 50 84 dd be 1b 9f e7 3e b2 33 47 3e
       0.10643876 -0.4326501 0.45238575 0.19453314
000040 9f 1d 22 be a2 58 bc be b1 53 bd bd 07 5b 9e be
       -0.15831612 -0.3678637 -0.092444785 -0.30928823
000050 f9 ee 94 bd 0b 04 79 bf 61 31 d4 3e 19 2c b6 3e
       -0.07272143 -0.97271794 0.41443923 0.3558052
000060 de 1b 81 3d fb ab 56 be 4e 92 13 3f 8e a2 2f bf
       0.06304143 -0.20964043 0.5764512 -0.68607414
000070 8c bb 6e 3e e7 6d 83 bf 0d 18 fb 3d f4 df 6d 3e
       0.23313731 -1.0267915 0.12260447 0.23229963
000080 7a 3b 87 3f 3e 0c ba 3e 51 9e a2 3e 5a 5c 1c be
       1.0565026 0.36337465 0.3176141 -0.15269604
000090 8a 92 5f bd 1a 32 49 bc 23 f3 60 bf 68 4e 1c be
       -0.05458311 -0.012280012 -0.87871 -0.15264285
0000a0 26 43 aa 3f 7f e4 53 3f 32 fa 1c bf 9a 2e 19 bf
       1.3301742 0.8277053 -0.6131927 -0.59836733
0000b0 32 fc 14 bf 75 1f 44 bd 6d 60 28 3e 8f 78 a1 be
       -0.5819732 -0.047881562 0.16443034 -0.3153729
0000c0 a1 05 2a 3f 60 7e e5 3e e7 78 0e 3f c6 86 1a 3e
       0.6641484 0.4482298 0.5565323 0.15090474
0000d0 f8 1d a0 3f d8 2c 0d 3f c2 9d 93 3f 16 91 a3 bd
       1.2509146 0.5514655 1.1532519 -0.07986657
0000e0 1c 9f 7a 3f 2a d2 80 bf 23 31 3d 3e c4 0e 76 be
       0.9789903 -1.0064137 0.18475775 -0.2402907
0000f0 de 84 4b be 50 00 04 3f 71 9e 90 3f 14 da 31 be
       -0.19874904 0.51562977 1.1298352 -0.17368346

features.8.conv.2.weight_bias f4 [64]
000000 b7 e0 bc be c2 44 2e bd 68 b0 21 3d 38 c1 07 3e
       -0.36890194 -0.04254604 0.039474875 0.13257301
000010 8a f3 bd bd b7 43 59 3d dc de c1 bd 3d 72 bb be
       -0.09274967 0.053043094 -0.09466335 -0.36610594
000020 6d b4 52 be 3f b8 9f 3d f9 ad 87 be 18 a8 30 3e
       -0.2057664 0.07798814 -0.26499918 0.17251623
000030 35 5b 94 3d 92 f0 c7 bd 7a 64 10 3e 1d 1b 94 3e
       0.07243959 -0.09762682 0.14100829 0.28926936
000040 94 8d 85 3e d2 01 ec 3d 6d 96 a7 3e f5 9e 56 be
       0.26084578 0.11523785 0.32731953 -0.20959075
000050 d4 5a 96 bd 39 17 0b bf 06 ff b3 bd 05 91 f2 3e
       -0.07341543 -0.5433231 -0.08788876 0.47376266
000060 d2 07 63 3d a6 c7 60 be a0 7b 70 3f 3e 7c 58 be
       0.05542738 -0.2195116 0.93938637 -0.21141145
000070 33 e8 2e 3e 67 48 63 3e 9f b1 bd 3e 75 f1 10 3f
       0.17080764 0.22195588 0.37049577 0.56618434
000080 0f fc bd bd 6a d0 0f 3e 7f 32 a0 bf e9 09 d8 be
       -0.09276592 0.14044347 -1.251541 -0.4219506
000090 91 05 1a 3f a8 3c c7 3c 6c bc 1d 3e 40 72 9e be
       0.60164744 0.024320915 0.15403908 -0.3094654
0000a0 22 94 13 be 88 82 b9 be 06 7c 55 3e f2 15 0c be
       -0.14411977 -0.362324 0.20848092 -0.13680246
0000b0 cb 13 db 3e 0f 20 0c 3e fd 25 d0 bd d1 58 2f 3f
       0.42788538 0.13684104 -0.10163496 0.684949
0000c0 91 45 87 3e ba 33 24 3e ec c5 23 be 8c f5 c4 3e
       0.26420262 0.16035357 -0.1599347 0.38468587
0000d0 b2 37 25 3e 66 d3 60 be c1 24 51 be 64 52 a5 3e
       0.16134527 -0.21955642 -0.20424177 0.32289422
0000e0 fb 53 eb 3e 2b 7e 89 3d 56 61 98 3e f2 8b 34 3f
       0.4596251 0.06713518 0.2976176 0.7052604
0000f0 72 a9 44 3f e8 6d 25 bf 3b 44 05 3d 3d 1b 80 be
       0.76821053 -0.6462083 0.032535773 -0.2502078

features.9.conv.2.weight_bias f4 [64]
000000 eb af 8d 3e be d2 2b 3e b3 cd d5 be 0b 74 5c be
       0.27673277 0.1677961 -0.417585 -0.21528642
000010 1a 3a f3 bd 57 3d 68 be 85 92 18 3e 57 2c ef 3d
       -0.11876316 -0.2267965 0.14899643 0.11678379
000020 4d ef e0 be 75 a0 0b 3e de 76 53 3e ea 80 69 be
       -0.43932572 0.13635428 0.20650813 -0.22803083
000030 b4 1b ee bd f9 4b 99 be eb 45 b4 3d 13 97 b1 3e
       -0.11626378 -0.29940775 0.08802398 0.34685573
000040 be d5 33 3e c0 72 85 be ba 92 cf 3e 7b 9a 58 3b
       0.17562005 -0.2606411 0.4054163 0.0033051062
000050 65 0d 75 3e 4e 2c e9 3e cf b4 5c 3e 2f cc 75 bc
       0.23930891 0.45541614 0.21553348 -0.015002294
000060 22 01 3c 3e 7a d1 20 bd 32 f5 17 3e 84 4b 6c bc
       0.18359807 -0.039262272 0.14839628 -0.014422301
000070 b1 3a 2d bd eb 4d 25 3d 73 93 33 3d 5a 42 06 be
       -0.0422923 0.04035751 0.04384179 -0.13111249
000080 1a b1 6a 3c 3f be af be 62 35 d4 3d d0 cc 89 be
       0.014324451 -0.34324834 0.103617445 -0.26914072
000090 e1 ef e0 bd f7 6f 93 be c2 73 24 3e c4 ff 71 3e
       -0.10983253 -0.2879636 0.16059783 0.23632723
0000a0 4b 30 22 be 27 79 67 be c0 27 18 3e aa b2 18 3e
       -0.15838735 -0.2260481 0.14858913 0.14911905
0000b0 16 4c 87 3e e8 4b 2f 3e 6e 7f a5 bd 23 24 5f 3e
       0.26425236 0.171188 -0.08080946 0.21791129
0000c0 25 0c 40 be 3a 1e 0f 3c e1 4f 3f bd 5c 43 95 be
       -0.18754633 0.008735234 -0.046707038 -0.29152954
0000d0 81 d8 84 be 4a b1 a0 3b d2 8e ba 3c de 8e 72 bd
       -0.2594643 0.004903947 0.02277318 -0.05921828
0000e0 60 03 be bc 20 b8 35 3d 6e 7d 42 be 01 23 06 be
       -0.023194969 0.04436505 -0.1899316 -0.1309929
0000f0 0d ad 2f 3f 35 72 df 3e 5b bb 5e 3e 08 c2 26 be
       0.6862343 0.4364182 0.21751158 -0.16284955

features.10.conv.2.weight_bias f4 [64]
000000 d0 69 5d be e5 c9 16 be c8 be 94 3d 0d 4e ee be
       -0.21622396 -0.14725454 0.07262951 -0.46543923
000010 3b 08 36 3f ef 36 86 bc 09 37 14 be 65 f3 5c 3e
       0.7110631 -0.016383616 -0.14474119 0.21577223
000020 81 b9 11 bf 2b a0 03 3f 07 30 e2 bc 5a 5f d3 be
       -0.5692368 0.5141627 -0.027610792 -0.41283685
000030 e5 04 d4 be e0 30 f8 be a3 b9 a0 be 0d 89 38 be
       -0.41409984 -0.4847479 -0.3139163 -0.1802103
000040 bb 74 50 3e 33 b1 13 be d8 6c 7b 3e 66 aa d0 3d
       0.20357029 -0.14423065 0.2455324 0.10188751
000050 45 c7 ed 3d 20 7d 39 3e e2 23 e7 be 55 13 35 3e
       0.11610273 0.18114138 -0.45144564 0.17683156
000060 88 6c 22 bd 25 f0 5c bc 37 80 56 3e 76 f8 89 3d
       -0.039654285 -0.013484989 0.20947348 0.06736843
000070 4b 40 26 be 7a c4 0d be b9 27 84 bb b6 74 1b bf
       -0.16235463 -0.13844481 -0.0040330556 -0.6072496
000080 c5 9d 2c bf bb ba 65 3e af 63 30 3e 66 11 da 3c
       -0.6742824 0.22434513 0.17225526 0.026619624
000090 24 13 c1 bd 69 25 e4 bd f6 fa b8 bd 6f 94 3f 3e
       -0.09427479 -0.11139948 -0.09032242 0.18708967
0000a0 5d 27 d6 3e a4 22 d2 3c 9c 20 81 bd e5 54 4a 3d
       0.41826907 0.025651284 -0.06305048 0.049397368
0000b0 ff df 3f 3c 27 48 17 be 04 88 64 be 54 a6 2b be
       0.01171112 -0.14773618 -0.22317511 -0.16762668
0000c0 d1 82 1e 3e 40 78 bb be b2 dd 0c be 57 5c 87 3d
       0.1547959 -0.3661518 -0.13756445 0.06609409
0000d0 95 b2 9b be 8f b1 9f 3e 1b 1b 51 bc 50 15 d0 bd
       -0.30409685 0.31190154 -0.01276281 -0.10160315
0000e0 b5 c1 95 3d ec 79 7c be 32 dc 20 bf fe 1a 97 be
       0.07312337 -0.24655885 -0.6283599 -0.2951278
0000f0 32 44 b3 3d 82 3e 98 be 72 3d 30 3c 72 1c 41 3e
       0.087532416 -0.2973519 0.010756837 0.18858507
