wafer_defect_model (1).onnx (onnx, 254382 bytes, 13 tensors)

classifier.3.bias f4 [5]
-0.0013786115 -0.046751063 0.0059261676 -0.004877604 0.05011103
00000000: 87b2 b4ba 0b7e 3fbd 4c30 c23b 4fd4 9fbb
00000010: 3941 4d3d

features.0.0.weight_bias f4 [32]
-0.08152063 0.5659424 0.34193566 0.2768004 0.98019856 1.0661242 0.491892 0.5530204
0.60655636 -0.0018777378 0.06022036 0.9424951 0.45858473 -0.3706729 -0.0002739954 0.0067139426
-0.045037627 -0.017905356 0.34395614 -0.9228429 -0.24374302 0.50318164 0.111313015 -0.019246956
-0.3516755 0.5193521 -0.30138552 0.6443329 0.0022672862 -0.07423002 0.9682399 0.282504
00000000: 4af4 a6bd 9ae1 103f 3112 af3e c8b8 8d3e
00000010: 4bee 7a3f c276 883f 45d9 fb3e bf92 0d3f
00000020: 4747 1b3f 6d1e f6ba a0a9 763d 5c47 713f
00000030: 9ecb ea3e d7c8 bdbe 0aa7 8fb9 a200 dc3b
00000040: 6079 38bd 41ae 92bc 051b b03e 6f3f 6cbf
00000050: c597 79be 83d0 003f 14f8 e33d cbab 9dbc
00000060: d00e b4be 42f4 043f 344f 9abe 00f3 243f
00000070: c096 143b e905 98bd 92de 773f 5da4 903e

features.1.conv.0.0.weight_bias f4 [32]
-0.014277514 0.7931664 -0.10660839 0.4202367 0.22329244 0.89443684 0.56003916 0.38792875
3.7960117 -0.0046819523 0.34985408 0.3135603 0.80279493 -0.40753847 -0.0056798914 -0.0055370973
0.0067049777 0.010107605 -0.93658805 0.12567763 -0.2508037 1.6364031 0.94414103 0.0013088167
0.75300324 -0.9235704 -0.32192215 0.91686654 0.63950956 0.30950183 0.99142087 -0.28704903
00000000: 3cec 69bc f40c 4b3f 8055 dabd 4429 d73e
00000010: c6a6 643e d0f9 643f ba5e 0f3f 999e c63e
00000020: dbf1 7240 106b 99bb 1320 b33e fa8a a03e
00000030: f883 4d3f e2a8 d0be 621e babb 8a70 b5bb
00000040: 6eb5 db3b 5e9a 253c 3cc4 6fbf a3b1 003e
00000050: 5869 80be a875 d13f 3ab3 713f 9a8c ab3a
00000060: d2c4 403f 1c6f 6cbf fbd2 a4be c4b7 6a3f
00000070: e6b6 233f 0677 9e3e c2cd 7d3f 17f8 92be

features.1.conv.1.weight_bias f4 [16]
-2.1143427 0.48583436 -1.3903128 0.9127089 -0.064904675 -0.5552031 -0.6272949 -1.9045292
-0.96183074 -1.7014068 1.5223918 -0.5309427 -0.8150594 -0.154367 1.8438606 1.7237145
00000000: 6451 07c0 48bf f83e c5f5 b1bf 4aa7 693f
00000010: beec 84bd ca21 0ebf 6696 20bf 9dc7 f3bf
00000020: 8a3a 76bf b3c7 d9bf bcdd c23f dceb 07bf
00000030: bca7 50bf 6212 1ebe a003 ec3f ada2 dc3f

features.2.conv.2.weight_bias f4 [24]
-1.4783244 0.60278887 -0.7221094 -0.1912282 -0.13257842 -0.81136906 -0.5124472 0.16601378
-0.19556741 0.074326634 0.031976596 0.5096184 0.16621462 2.0316718 1.582831 0.8615871
0.23223019 -0.16958252 -0.7078309 0.11051342 0.360419 0.27722833 0.16640222 0.17460255
00000000: bc39 bdbf 5f50 1a3f 29dc 38bf 53d1 43be
00000010: a3c2 07be e2b5 4fbf bd2f 03bf 84ff 293e
00000020: d342 48be 9038 983d e4f9 023d 5a76 023f
00000030: 2a34 2a3e e906 0240 359a ca3f f990 5c3f
00000040: c0cd 6d3e 0aa7 2dbe 6834 35bf dc54 e23d
00000050: d788 b83e dff0 8d3e 5865 2a3e 03cb 323e

features.3.conv.2.weight_bias f4 [24]
-1.2614353 -1.0044557 0.03795452 -0.23320001 -1.4086447 1.1711428 0.6507918 0.1246985
0.14224558 -0.14862087 -2.4717739 -0.6534345 0.49743044 -1.1304605 -0.034628045 -0.16716902
0.3476274 -0.54571587 -0.47989532 0.45134792 0.9450823 0.85910696 -1.968979 1.229641
00000000: b676 a1bf 0192 80bf 3376 1b3d fccb 6ebe
00000010: 784e b4bf 02e8 953f 4b9a 263f ed61 ff3d
00000020: d3a8 113e 1230 18be 8b31 1ec0 7c47 27bf
00000030: 34af fe3e eeb2 90bf 23d6 0dbd 5b2e 2bbe
00000040: 38fc b13e 09b4 0bbf d7b4 f5be 1317 e73e
00000050: eaf0 713f 6fee 5b3f 8107 fcbf e064 9d3f

features.4.conv.2.weight_bias f4 [32]
0.732395 0.42925277 -0.5914928 0.61592066 0.2051699 -1.2295612 -0.3215996 -0.17022769
0.024989333 -1.5405402 1.0113612 1.557436 0.65576935 0.801365 0.1411618 -0.48854458
0.67094105 -0.047747448 0.40123236 -0.3681036 -0.11396464 0.39581156 -0.50561464 0.39087462
-0.8047063 0.9277547 -0.13143566 -1.0932436 0.28783756 -1.0854686 -0.56331027 -0.19416988
00000000: 3d7e 3b3f 05c7 db3e 126c 17bf faac 1d3f
00000010: 0f18 523e 4362 9dbf b4a8 a4be 2b50 2ebe
00000020: 6eb6 cc3c 6c30 c5bf 4974 813f 105a c73f
00000030: 80e0 273f 4226 4d3f b88c 103e 8422 fabe
00000040: cbc2 2b3f d492 43bd 546e cd3e 1378 bcbe
00000050: 4b66 e9bd d0a7 ca3e f66f 01bf b820 c83e
00000060: 3b01 4ebf 5581 6d3f 1297 06be 68ef 8bbf
00000070: 725f 933e a3f0 8abf 1a35 10bf 78d4 46be

features.5.conv.2.weight_bias f4 [32]
0.03540155 0.11537877 -0.36195478 0.68350065 -0.14490065 -0.11735275 0.21328233 -0.28105494
-0.5128018 0.14863957 0.26129538 -0.25336438 -0.5941294 -0.6018861 0.053125955 -0.31289837
0.41414335 -0.11083708 0.113034174 0.3206869 0.79446965 -0.31073934 0.2708246 -0.5738704
0.13844256 -0.110369965 -0.42378873 0.44898203 0.48960182 -0.15789661 -0.3102739 0.06135989
00000000: 3701 113d b44b ec3d 2352 b9be e6f9 2e3f
00000010: d660 14be a356 f0bd af66 5a3e 6fe6 8fbe
00000020: fb46 03bf f934 183e 82c8 853e fab8 81be
00000030: dd18 18bf 3515 1abf 9a9a 593d 3734 a0be
00000040: 990a d43e 8dfe e2bd 767e e73d 1331 a43e
00000050: 5d62 4b3f 3a19 9fbe 86a9 8a3e 2ce9 12bf
00000060: e3c3 0d3e a609 e2bd d6fa d8be f9e0 e53e
00000070: 17ad fa3e a6af 21be 38dc 9ebe 8254 7b3d

features.6.conv.2.weight_bias f4 [32]
-0.4068064 -0.017800657 -0.23734659 0.214653 0.16383551 0.21687283 -0.36449215 0.24745461
0.03353407 0.5073797 0.20415063 0.12077603 0.15392326 0.18702042 0.26162678 -0.49475488
-0.36313435 -0.49473977 0.02780248 0.53494954 0.34615776 0.12829302 -0.037686814 0.25917706
-0.1397609 -0.5339097 -0.21063516 0.39389572 -0.27644458 -0.42998803 0.37186873 -0.32757476
00000000: ee48 d0be afd2 91bc fc0a 73be ffcd 5b3e
00000010: 7fc4 273e e913 5e3e b79e babe be64 7d3e
00000020: 055b 093d a3e3 013f dd0c 513e 6c59 f73d
00000030: 0f9e 1d3e 4882 3f3e f2f3 853e 8350 fdbe
00000040: bfec b9be 884e fdbe 07c2 e33c 74f2 083f
00000050: 973b b13e 3f5f 033e 7d5d 1abd dbb2 843e
00000060: 7b1d 0fbe 4eae 08bf beb0 57be b3ac c93e
00000070: 258a 8dbe 6427 dcbe 9465 be3e e1b7 a7be

features.7.conv.2.weight_bias f4 [64]
-0.4007 -0.20726976 -0.7532839 -0.034264307 -0.49512628 -0.08533638 0.06093799 -1.056853
-0.073604286 1.9238044 -1.5150806 1.0845568 0.12738761 -0.43304577 0.42414027 0.08089013
-0.19786981 -0.2847777 -0.11639489 -0.35801178 -0.067756265 -0.88381183 0.61394167 0.38333976
0.15519777 -0.08652659 0.5665348 -0.64592934 0.13711774 -1.0650208 0.05479889 0.17238095
1.3065312 0.50095326 0.34474456 -0.024098242 -0.116761975 -0.03155464 -0.9180345 -0.063474774
1.0005265 0.6524084 -0.7857904 -0.72953403 -0.74107563 -0.06721926 0.307442 -0.25036284
0.7972484 0.39034337 0.4498882 0.15206742 1.5248295 0.5410948 0.91999704 -0.01153044
0.85235703 -1.0482292 0.21710718 -0.26586697 -0.18184522 0.41814017 0.9050964 -0.1683692
00000000: 8d28 cdbe 863e 54be 37d7 40bf bb58 0cbd
00000010: 3181 fdbe d7c4 aebd 1d9a 793d f646 87bf
00000020: d8bd 96bd 393f f63f 29ee c1bf c2d2 8a3f
00000030: e671 023e 2db8 ddbe ea28 d93e b9a9 a53d
00000040: 629e 4abe 62ce 91be 7260 eebd 524d b7be
00000050: ccc3 8abd 7e41 62bf 482b 1d3f 1c45 c43e
00000060: 2aec 1e3e da34 b1bd 6d08 113f a05b 25bf
00000070: 9868 0c3e 9a52 88bf cd74 603d a284 303e
00000080: 6a3c a73f 793e 003f 5c82 b03e ad69 c5bc
00000090: e720 efbd 703f 01bd 4f04 6bbf 10ff 81bd
000000a0: 4111 803f 3d04 273f 8f29 49bf bec2 3abf
000000b0: 22b7 3dbf 40aa 89bd 0a69 9d3e 8f2f 80be
000000c0: 7918 4c3f 16db c73e bf57 e63e 90b7 1b3e
000000d0: 9d2d c33f 3085 0a3f ed84 6b3f 2cea 3cbc
000000e0: 1234 5a3f 602c 86bf 5851 5e3e b71f 88be
000000f0: a235 3abe 7816 d63e 66b4 673f fa68 2cbe

features.8.conv.2.weight_bias f4 [64]
-0.27528644 -0.13554962 0.06631895 0.36390325 0.04137828 0.009049349 -0.016646404 -0.27344203
-0.3241025 -0.042722672 -0.16357303 0.015990822 0.063649245 -0.0587625 0.028870797 0.15493941
0.18880929 0.09279222 0.2813236 -0.2972844 -0.1143799 -0.40048897 -0.031668227 0.35939565
0.18483257 -0.24720539 0.7459612 -0.1368017 0.21335359 0.1962273 0.44251105 0.51856196
0.009945681 0.102956675 -0.94789165 -0.3870478 0.46403483 -0.18045132 0.15911011 -0.21631172
-0.17210406 -0.32371828 0.27632153 -0.1296469 0.44723567 0.10639535 -0.023839956 0.6764923
0.23866592 0.25205883 -0.106461525 0.16627106 0.20920967 -0.28556857 -0.110435836 0.36760083
0.35293368 -0.07479034 0.3839563 0.66726214 0.63899046 -0.625573 -0.061754998 -0.18458547
00000000: 58f2 8cbe 85cd 0abe 3bd2 873d 8751 ba3e
00000010: 457c 293d b943 143c 0a5e 88bc 9800 8cbe
00000020: c3f0 a5be f8fd 2ebd b07f 27be 2fff 823c
00000030: 895a 823d f2b0 70bd 7382 ec3c 70a8 1e3e
00000040: 3957 413e d909 be3d a609 903e a935 98be
00000050: 0240 eabd e40c cdbe 8bb6 01bd b502 b83e
00000060: c044 3d3e 6923 7dbe 50f7 3e3f bf15 0cbe
00000070: 5d79 5a3e cfef 483e cf90 e23e 7ac0 043f
00000080: 36f3 223c f3da d23d 07a9 72bf 212b c6be
00000090: f995 ed3e 3bc8 38be c3ed 223e d280 5dbe
000000a0: 0c3c 30be 67be a5be 047a 8d3e 28c2 04be
000000b0: 13fc e43e cee5 d93d 034c c3bc 992e 2d3f
000000c0: d764 743e db0d 813e 8008 dabd f642 2a3e
000000d0: 0f3b 563e 0b36 92be 2f2c e2bd 2d36 bc3e
000000e0: b9b3 b43e ae2b 99bd ec95 c43e b1d1 2a3f
000000f0: e194 233f 8d25 20bf cff2 7cbd f903 3dbe

features.9.conv.2.weight_bias f4 [64]
0.2337048 0.073740244 -0.2785819 0.033491604 -0.11104586 -0.16379857 0.26347154 0.13511509
-0.41026378 -0.031045973 0.20471007 -0.1692035 -0.14832245 -0.29162544 0.124496914 0.14134212
0.11028149 -0.24202956 0.33692506 -0.0029701404 0.24203557 0.37596783 0.20062372 -0.08377803
0.27890795 -0.12064152 0.18025637 0.029313987 0.021777859 0.11062459 0.07707968 -0.14063802
0.06717068 -0.38283312 0.23868321 -0.1916921 -0.16590138 -0.48041725 0.15027219 0.2999616
-0.22634453 -0.29137823 0.15971823 0.1077987 0.23046932 0.22553709 -0.09620107 0.3242468
-0.18580191 0.061728496 0.097470656 -0.38245228 -0.2025796 -0.12696464 0.029457912 0.00046376756
0.068023056 0.10020101 -0.027979523 -0.29693937 0.6649187 0.361393 0.14418761 -0.12282526
00000000: 5050 6f3e 2005 973d 49a2 8ebe 7e2e 093d
00000010: 036c e3bd d0ba 27be bee5 863e 9c5b 0a3e
00000020: 180e d2be 2054 febc 849f 513e af43 2dbe
00000030: d7e1 17be ee4f 95be 3df8 fe3d fdbb 103e
00000040: 43db e13d 99d6 77be 7181 ac3e b0a6 42bb
00000050: 2cd8 773e db7e c03e 4e70 4d3e d193 abbd
00000060: 06cd 8e3e e712 f7bd 2095 383e e323 f03c
00000070: 7b67 b23c 258f e23d f4db 9d3d 6a03 10be
00000080: c890 893d b402 c4be 5f69 743e ef4a 44be
00000090: 0de2 29be 40f9 f5be f4e0 193e 9194 993e
000000a0: dcc6 67be 872f 95be 2d8d 233e 91c5 dc3d
000000b0: 2600 6c3e 32f3 663e 1105 c5bd ad03 a63e
000000c0: db42 3ebe 05d7 7c3d b29e c73d c9d0 c3be
000000d0: 0771 4fbe 0503 02be b851 f13c d425 f339
000000e0: ac4f 8b3d 3036 cd3d 5035 e5bc 7008 98be
000000f0: 1d38 2a3f 8108 b93e eba5 133e cf8b fbbd

features.10.conv.2.weight_bias f4 [64]
-0.2596702 -0.19976315 0.025600156 -0.4432045 0.61394787 -0.045859307 -0.22355425 0.22434147
-0.6654896 0.39326707 -0.0044771465 -0.49492854 -0.46174178 -0.41852322 -0.2852427 -0.28136516
0.21006893 -0.14157417 0.20738648 0.082317606 0.11300457 0.22313578 -0.5298943 0.14905576
-0.031000372 -0.1106258 0.14172827 0.10226303 -0.046425495 -0.06734884 0.015513786 -0.54999036
-0.51655966 0.11892049 0.19543943 0.06417614 -0.06345614 -0.2406116 -0.06328031 0.25314376
0.3292146 -0.045726478 0.013982046 0.08627933 -0.010007536 -0.13770191 -0.22553362 -0.247099
0.16685407 -0.21208498 -0.03684496 -0.07806367 -0.21763535 0.20477945 0.06738974 -0.11777637
0.09849185 -0.26789242 -0.5686012 -0.33395013 -0.001217091 -0.26662523 -0.07513295 0.2075359
00000000: 7ef3 84be b68e 4cbe 6bb7 d13c b3eb e2be
00000010: b02b 1d3f f8d6 3bbd 68eb 64be c5b9 653e
00000020: 875d 2abf 4d5a c93e 07b5 92bb 4667 fdbe
00000030: 6b69 ecbe ad48 d6be 550b 92be 180f 90be
00000040: 4f1c 573e d2f8 10be 1f5d 543e 2296 a83d
00000050: f16e e73d b57d 643e 27a7 07bf 13a2 183e
00000060: 7ef4 fdbc c88f e2bd 3721 113e 486f d13d
00000070: a928 3ebd 30ee 89bd 892d 7e3c 2bcc 0cbf
00000080: 413d 04bf 968c f33d 4621 483e c86e 833d
00000090: 4bf5 81bd e362 76be 1b99 81bd 0f9c 813e
000000a0: d18e a83e b04b 3bbd f414 653c 38b3 b03d
000000b0: a6f6 23bc bb01 0dbe 49f2 66be 8507 7dbe
000000c0: cbdb 2a3e ce2c 59be beea 16bd d8df 9fbd
000000d0: cddb 5ebe b4b1 513e a203 8a3d bd34 f1bd
000000e0: 18b6 c93d 3229 89be d98f 11bf 83fb aabe
000000f0: cc86 9fba 1a83 88be 4edf 99bd 4a84 543e
